…
{'model_name': 'Transformer', 'train_seq_part': 'fix_and_choice', 'n_simulation_sequences_train': 0, 'n_human_sequences_train': 500000.0, 'n_sequences_test': 500, 'n_sequences_final_performance': 500, 'd_model': 32, 'n_layers': 2, 'n_head': 8, 'sim_lr': 0, 'human_lr': 0.01, 'batch_size': 32, 'run_idx': 0, 'on_cluster': True, 'test_batch_increment_sim': 1000.0, 'test_batch_increment_human': 1000.0, 'save_folder_name': 'Hyper_Param_Search1', 'save_file_name': 'run_0_model_name_Transformer_d_model_32_sim_lr_0_human_lr_0.01_n_head_8_n_layers_2_nsim_0_nhum_500000.0'}
<class 'int'>
Loading Data
SimpleTransformer(
  (encoder): Linear(in_features=6, out_features=32, bias=True)
  (pos_encoder): PositionalEncoding(
    (dropout): Dropout(p=0, inplace=False)
  )
  (transformer_encoder): TransformerEncoder(
    (layers): ModuleList(
      (0): TransformerEncoderLayer(
        (self_attn): MultiheadAttention(
          (out_proj): NonDynamicallyQuantizableLinear(in_features=32, out_features=32, bias=True)
        )
        (linear1): Linear(in_features=32, out_features=128, bias=True)
        (dropout): Dropout(p=0, inplace=False)
        (linear2): Linear(in_features=128, out_features=32, bias=True)
        (norm1): LayerNorm((32,), eps=1e-05, elementwise_affine=True)
        (norm2): LayerNorm((32,), eps=1e-05, elementwise_affine=True)
        (dropout1): Dropout(p=0, inplace=False)
        (dropout2): Dropout(p=0, inplace=False)
      )
      (1): TransformerEncoderLayer(
        (self_attn): MultiheadAttention(
          (out_proj): NonDynamicallyQuantizableLinear(in_features=32, out_features=32, bias=True)
        )
        (linear1): Linear(in_features=32, out_features=128, bias=True)
        (dropout): Dropout(p=0, inplace=False)
        (linear2): Linear(in_features=128, out_features=32, bias=True)
        (norm1): LayerNorm((32,), eps=1e-05, elementwise_affine=True)
        (norm2): LayerNorm((32,), eps=1e-05, elementwise_affine=True)
        (dropout1): Dropout(p=0, inplace=False)
        (dropout2): Dropout(p=0, inplace=False)
      )
    )
  )
  (decoder): Linear(in_features=32, out_features=3, bias=True)
)
Training the model
Training on simulated data
Training on human data
number of simulation seqeuences: 0number of human seqeuences: 32000 sim test loss: 4.940525978803635 human test loss 5.525018364191055
number of simulation seqeuences: 0number of human seqeuences: 64000 sim test loss: 4.967062145471573 human test loss 5.592926263809204
number of simulation seqeuences: 0number of human seqeuences: 96000 sim test loss: 5.250763893127441 human test loss 5.617054671049118
…
